…
2023-05-26 04:33:43 | INFO | fairseq.tasks.translation | [zh] dictionary: 36776 types
2023-05-26 04:33:43 | INFO | fairseq.tasks.translation | [en] dictionary: 34088 types
2023-05-26 04:33:43 | INFO | fairseq.data.data_utils | loaded 2619 examples from: /project/jonmay_231/linghaoj/canmt/bwb/data/bin/valid.zh-en.zh
2023-05-26 04:33:43 | INFO | fairseq.data.data_utils | loaded 2619 examples from: /project/jonmay_231/linghaoj/canmt/bwb/data/bin/valid.zh-en.en
2023-05-26 04:33:44 | INFO | fairseq_cli.train | ContextualMegaModel(
  (encoder): ContextualMegaEncoder(
    (embedding_dropout): FairseqDropout(p=0.2)
    (embed_tokens): Embedding(36776, 512, padding_idx=1)
    (layers): ModuleList(
      (0): MegaEncoderLayer(
        (mega_layer): MovingAverageGatedAttention(
          edim=512, zdim=128, hdim=1024, ndim=16, chunk=-1, attn_act=softmax, prenorm=False
          (dropout): FairseqDropout(p=0.2)
          (hidden_dropout): FairseqDropout(p=0.0)
          (attention_dropout): FairseqDropout(p=0.0)
          (norm): SequenceNorm(
            (norm): LayerNorm((512,), eps=1e-05, elementwise_affine=True)
          )
          (move): MultiHeadEMA(edim=512, ndim=16, bidirectional=True, trunction=1024)
          (v_proj): Linear(in_features=512, out_features=1024, bias=True)
          (mx_proj): Linear(in_features=512, out_features=2176, bias=True)
          (h_proj): Linear(in_features=1024, out_features=512, bias=True)
          (rel_pos_bias): SimpleRelativePositionalBias(max positions=1024)
        )
        (nffn): NormalizedFeedForwardNetwork(
          edim=512, hdim=1024, act=silu, prenorm=False
          (dropout): FairseqDropout(p=0.2)
          (hidden_dropout): FairseqDropout(p=0.0)
          (norm): SequenceNorm(
            (norm): LayerNorm((512,), eps=1e-05, elementwise_affine=True)
          )
          (fc1): Linear(in_features=512, out_features=1024, bias=True)
          (fc2): Linear(in_features=1024, out_features=512, bias=True)
        )
      )
      (1): MegaEncoderLayer(
        (mega_layer): MovingAverageGatedAttention(
          edim=512, zdim=128, hdim=1024, ndim=16, chunk=-1, attn_act=softmax, prenorm=False
          (dropout): FairseqDropout(p=0.2)
          (hidden_dropout): FairseqDropout(p=0.0)
          (attention_dropout): FairseqDropout(p=0.0)
          (norm): SequenceNorm(
            (norm): LayerNorm((512,), eps=1e-05, elementwise_affine=True)
          )
          (move): MultiHeadEMA(edim=512, ndim=16, bidirectional=True, trunction=1024)
          (v_proj): Linear(in_features=512, out_features=1024, bias=True)
          (mx_proj): Linear(in_features=512, out_features=2176, bias=True)
          (h_proj): Linear(in_features=1024, out_features=512, bias=True)
          (rel_pos_bias): SimpleRelativePositionalBias(max positions=1024)
        )
        (nffn): NormalizedFeedForwardNetwork(
          edim=512, hdim=1024, act=silu, prenorm=False
          (dropout): FairseqDropout(p=0.2)
          (hidden_dropout): FairseqDropout(p=0.0)
          (norm): SequenceNorm(
            (norm): LayerNorm((512,), eps=1e-05, elementwise_affine=True)
          )
          (fc1): Linear(in_features=512, out_features=1024, bias=True)
          (fc2): Linear(in_features=1024, out_features=512, bias=True)
        )
      )
      (2): MegaEncoderLayer(
        (mega_layer): MovingAverageGatedAttention(
          edim=512, zdim=128, hdim=1024, ndim=16, chunk=-1, attn_act=softmax, prenorm=False
          (dropout): FairseqDropout(p=0.2)
          (hidden_dropout): FairseqDropout(p=0.0)
          (attention_dropout): FairseqDropout(p=0.0)
          (norm): SequenceNorm(
            (norm): LayerNorm((512,), eps=1e-05, elementwise_affine=True)
          )
          (move): MultiHeadEMA(edim=512, ndim=16, bidirectional=True, trunction=1024)
          (v_proj): Linear(in_features=512, out_features=1024, bias=True)
          (mx_proj): Linear(in_features=512, out_features=2176, bias=True)
          (h_proj): Linear(in_features=1024, out_features=512, bias=True)
          (rel_pos_bias): SimpleRelativePositionalBias(max positions=1024)
        )
        (nffn): NormalizedFeedForwardNetwork(
          edim=512, hdim=1024, act=silu, prenorm=False
          (dropout): FairseqDropout(p=0.2)
          (hidden_dropout): FairseqDropout(p=0.0)
          (norm): SequenceNorm(
            (norm): LayerNorm((512,), eps=1e-05, elementwise_affine=True)
          )
          (fc1): Linear(in_features=512, out_features=1024, bias=True)
          (fc2): Linear(in_features=1024, out_features=512, bias=True)
        )
      )
      (3): MegaEncoderLayer(
        (mega_layer): MovingAverageGatedAttention(
          edim=512, zdim=128, hdim=1024, ndim=16, chunk=-1, attn_act=softmax, prenorm=False
          (dropout): FairseqDropout(p=0.2)
          (hidden_dropout): FairseqDropout(p=0.0)
          (attention_dropout): FairseqDropout(p=0.0)
          (norm): SequenceNorm(
            (norm): LayerNorm((512,), eps=1e-05, elementwise_affine=True)
          )
          (move): MultiHeadEMA(edim=512, ndim=16, bidirectional=True, trunction=1024)
          (v_proj): Linear(in_features=512, out_features=1024, bias=True)
          (mx_proj): Linear(in_features=512, out_features=2176, bias=True)
          (h_proj): Linear(in_features=1024, out_features=512, bias=True)
          (rel_pos_bias): SimpleRelativePositionalBias(max positions=1024)
        )
        (nffn): NormalizedFeedForwardNetwork(
          edim=512, hdim=1024, act=silu, prenorm=False
          (dropout): FairseqDropout(p=0.2)
          (hidden_dropout): FairseqDropout(p=0.0)
          (norm): SequenceNorm(
            (norm): LayerNorm((512,), eps=1e-05, elementwise_affine=True)
          )
          (fc1): Linear(in_features=512, out_features=1024, bias=True)
          (fc2): Linear(in_features=1024, out_features=512, bias=True)
        )
      )
      (4): MegaEncoderLayer(
        (mega_layer): MovingAverageGatedAttention(
          edim=512, zdim=128, hdim=1024, ndim=16, chunk=-1, attn_act=softmax, prenorm=False
          (dropout): FairseqDropout(p=0.2)
          (hidden_dropout): FairseqDropout(p=0.0)
          (attention_dropout): FairseqDropout(p=0.0)
          (norm): SequenceNorm(
            (norm): LayerNorm((512,), eps=1e-05, elementwise_affine=True)
          )
          (move): MultiHeadEMA(edim=512, ndim=16, bidirectional=True, trunction=1024)
          (v_proj): Linear(in_features=512, out_features=1024, bias=True)
          (mx_proj): Linear(in_features=512, out_features=2176, bias=True)
          (h_proj): Linear(in_features=1024, out_features=512, bias=True)
          (rel_pos_bias): SimpleRelativePositionalBias(max positions=1024)
        )
        (nffn): NormalizedFeedForwardNetwork(
          edim=512, hdim=1024, act=silu, prenorm=False
          (dropout): FairseqDropout(p=0.2)
          (hidden_dropout): FairseqDropout(p=0.0)
          (norm): SequenceNorm(
            (norm): LayerNorm((512,), eps=1e-05, elementwise_affine=True)
          )
          (fc1): Linear(in_features=512, out_features=1024, bias=True)
          (fc2): Linear(in_features=1024, out_features=512, bias=True)
        )
      )
      (5): MegaEncoderLayer(
        (mega_layer): MovingAverageGatedAttention(
          edim=512, zdim=128, hdim=1024, ndim=16, chunk=-1, attn_act=softmax, prenorm=False
          (dropout): FairseqDropout(p=0.2)
          (hidden_dropout): FairseqDropout(p=0.0)
          (attention_dropout): FairseqDropout(p=0.0)
          (norm): SequenceNorm(
            (norm): LayerNorm((512,), eps=1e-05, elementwise_affine=True)
          )
          (move): MultiHeadEMA(edim=512, ndim=16, bidirectional=True, trunction=1024)
          (v_proj): Linear(in_features=512, out_features=1024, bias=True)
          (mx_proj): Linear(in_features=512, out_features=2176, bias=True)
          (h_proj): Linear(in_features=1024, out_features=512, bias=True)
          (rel_pos_bias): SimpleRelativePositionalBias(max positions=1024)
        )
        (nffn): NormalizedFeedForwardNetwork(
          edim=512, hdim=1024, act=silu, prenorm=False
          (dropout): FairseqDropout(p=0.2)
          (hidden_dropout): FairseqDropout(p=0.0)
          (norm): SequenceNorm(
            (norm): LayerNorm((512,), eps=1e-05, elementwise_affine=True)
          )
          (fc1): Linear(in_features=512, out_features=1024, bias=True)
          (fc2): Linear(in_features=1024, out_features=512, bias=True)
        )
      )
    )
  )
  (decoder): ContextualMegaDecoder(
    (embedding_dropout): FairseqDropout(p=0.2)
    (embed_tokens): Embedding(34088, 512, padding_idx=1)
    (layers): ModuleList(
      (0): MegaDecoderLayer(
        (mega_layer): MovingAverageGatedAttention(
          edim=512, zdim=128, hdim=1024, ndim=16, chunk=-1, attn_act=softmax, prenorm=False
          (dropout): FairseqDropout(p=0.2)
          (hidden_dropout): FairseqDropout(p=0.0)
          (attention_dropout): FairseqDropout(p=0.0)
          (norm): SequenceNorm(
            (norm): LayerNorm((512,), eps=1e-05, elementwise_affine=True)
          )
          (move): MultiHeadEMA(edim=512, ndim=16, bidirectional=False, trunction=1024)
          (v_proj): Linear(in_features=512, out_features=1024, bias=True)
          (mx_proj): Linear(in_features=512, out_features=2176, bias=True)
          (h_proj): Linear(in_features=1024, out_features=512, bias=True)
          (rel_pos_bias): SimpleRelativePositionalBias(max positions=1024)
        )
        (cross_attn): GatedCrossAttention(
          edim=512, zdim=128, ndim=16, attn_act=softmax, prenorm=False
          (dropout): FairseqDropout(p=0.2)
          (hidden_dropout): FairseqDropout(p=0.0)
          (attention_dropout): FairseqDropout(p=0.0)
          (norm): SequenceNorm(
            (norm): LayerNorm((512,), eps=1e-05, elementwise_affine=True)
          )
          (k_proj): Linear(in_features=512, out_features=128, bias=True)
          (v_proj): Linear(in_features=512, out_features=512, bias=True)
          (q_proj): Linear(in_features=512, out_features=1152, bias=True)
          (h_proj): Linear(in_features=512, out_features=512, bias=True)
          (rel_pos_bias): SimpleRelativePositionalBias(max positions=1024)
        )
        (nffn): NormalizedFeedForwardNetwork(
          edim=512, hdim=1024, act=silu, prenorm=False
          (dropout): FairseqDropout(p=0.2)
          (hidden_dropout): FairseqDropout(p=0.0)
          (norm): SequenceNorm(
            (norm): LayerNorm((512,), eps=1e-05, elementwise_affine=True)
          )
          (fc1): Linear(in_features=512, out_features=1024, bias=True)
          (fc2): Linear(in_features=1024, out_features=512, bias=True)
        )
      )
      (1): MegaDecoderLayer(
        (mega_layer): MovingAverageGatedAttention(
          edim=512, zdim=128, hdim=1024, ndim=16, chunk=-1, attn_act=softmax, prenorm=False
          (dropout): FairseqDropout(p=0.2)
          (hidden_dropout): FairseqDropout(p=0.0)
          (attention_dropout): FairseqDropout(p=0.0)
          (norm): SequenceNorm(
            (norm): LayerNorm((512,), eps=1e-05, elementwise_affine=True)
          )
          (move): MultiHeadEMA(edim=512, ndim=16, bidirectional=False, trunction=1024)
          (v_proj): Linear(in_features=512, out_features=1024, bias=True)
          (mx_proj): Linear(in_features=512, out_features=2176, bias=True)
          (h_proj): Linear(in_features=1024, out_features=512, bias=True)
          (rel_pos_bias): SimpleRelativePositionalBias(max positions=1024)
        )
        (cross_attn): GatedCrossAttention(
          edim=512, zdim=128, ndim=16, attn_act=softmax, prenorm=False
          (dropout): FairseqDropout(p=0.2)
          (hidden_dropout): FairseqDropout(p=0.0)
          (attention_dropout): FairseqDropout(p=0.0)
          (norm): SequenceNorm(
            (norm): LayerNorm((512,), eps=1e-05, elementwise_affine=True)
          )
          (k_proj): Linear(in_features=512, out_features=128, bias=True)
          (v_proj): Linear(in_features=512, out_features=512, bias=True)
          (q_proj): Linear(in_features=512, out_features=1152, bias=True)
          (h_proj): Linear(in_features=512, out_features=512, bias=True)
          (rel_pos_bias): SimpleRelativePositionalBias(max positions=1024)
        )
        (nffn): NormalizedFeedForwardNetwork(
          edim=512, hdim=1024, act=silu, prenorm=False
          (dropout): FairseqDropout(p=0.2)
          (hidden_dropout): FairseqDropout(p=0.0)
          (norm): SequenceNorm(
            (norm): LayerNorm((512,), eps=1e-05, elementwise_affine=True)
          )
          (fc1): Linear(in_features=512, out_features=1024, bias=True)
          (fc2): Linear(in_features=1024, out_features=512, bias=True)
        )
      )
      (2): MegaDecoderLayer(
        (mega_layer): MovingAverageGatedAttention(
          edim=512, zdim=128, hdim=1024, ndim=16, chunk=-1, attn_act=softmax, prenorm=False
          (dropout): FairseqDropout(p=0.2)
          (hidden_dropout): FairseqDropout(p=0.0)
          (attention_dropout): FairseqDropout(p=0.0)
          (norm): SequenceNorm(
            (norm): LayerNorm((512,), eps=1e-05, elementwise_affine=True)
          )
          (move): MultiHeadEMA(edim=512, ndim=16, bidirectional=False, trunction=1024)
          (v_proj): Linear(in_features=512, out_features=1024, bias=True)
          (mx_proj): Linear(in_features=512, out_features=2176, bias=True)
          (h_proj): Linear(in_features=1024, out_features=512, bias=True)
          (rel_pos_bias): SimpleRelativePositionalBias(max positions=1024)
        )
        (cross_attn): GatedCrossAttention(
          edim=512, zdim=128, ndim=16, attn_act=softmax, prenorm=False
          (dropout): FairseqDropout(p=0.2)
          (hidden_dropout): FairseqDropout(p=0.0)
          (attention_dropout): FairseqDropout(p=0.0)
          (norm): SequenceNorm(
            (norm): LayerNorm((512,), eps=1e-05, elementwise_affine=True)
          )
          (k_proj): Linear(in_features=512, out_features=128, bias=True)
          (v_proj): Linear(in_features=512, out_features=512, bias=True)
          (q_proj): Linear(in_features=512, out_features=1152, bias=True)
          (h_proj): Linear(in_features=512, out_features=512, bias=True)
          (rel_pos_bias): SimpleRelativePositionalBias(max positions=1024)
        )
        (nffn): NormalizedFeedForwardNetwork(
          edim=512, hdim=1024, act=silu, prenorm=False
          (dropout): FairseqDropout(p=0.2)
          (hidden_dropout): FairseqDropout(p=0.0)
          (norm): SequenceNorm(
            (norm): LayerNorm((512,), eps=1e-05, elementwise_affine=True)
          )
          (fc1): Linear(in_features=512, out_features=1024, bias=True)
          (fc2): Linear(in_features=1024, out_features=512, bias=True)
        )
      )
      (3): MegaDecoderLayer(
        (mega_layer): MovingAverageGatedAttention(
          edim=512, zdim=128, hdim=1024, ndim=16, chunk=-1, attn_act=softmax, prenorm=False
          (dropout): FairseqDropout(p=0.2)
          (hidden_dropout): FairseqDropout(p=0.0)
          (attention_dropout): FairseqDropout(p=0.0)
          (norm): SequenceNorm(
            (norm): LayerNorm((512,), eps=1e-05, elementwise_affine=True)
          )
          (move): MultiHeadEMA(edim=512, ndim=16, bidirectional=False, trunction=1024)
          (v_proj): Linear(in_features=512, out_features=1024, bias=True)
          (mx_proj): Linear(in_features=512, out_features=2176, bias=True)
          (h_proj): Linear(in_features=1024, out_features=512, bias=True)
          (rel_pos_bias): SimpleRelativePositionalBias(max positions=1024)
        )
        (cross_attn): GatedCrossAttention(
          edim=512, zdim=128, ndim=16, attn_act=softmax, prenorm=False
          (dropout): FairseqDropout(p=0.2)
          (hidden_dropout): FairseqDropout(p=0.0)
          (attention_dropout): FairseqDropout(p=0.0)
          (norm): SequenceNorm(
            (norm): LayerNorm((512,), eps=1e-05, elementwise_affine=True)
          )
          (k_proj): Linear(in_features=512, out_features=128, bias=True)
          (v_proj): Linear(in_features=512, out_features=512, bias=True)
          (q_proj): Linear(in_features=512, out_features=1152, bias=True)
          (h_proj): Linear(in_features=512, out_features=512, bias=True)
          (rel_pos_bias): SimpleRelativePositionalBias(max positions=1024)
        )
        (nffn): NormalizedFeedForwardNetwork(
          edim=512, hdim=1024, act=silu, prenorm=False
          (dropout): FairseqDropout(p=0.2)
          (hidden_dropout): FairseqDropout(p=0.0)
          (norm): SequenceNorm(
            (norm): LayerNorm((512,), eps=1e-05, elementwise_affine=True)
          )
          (fc1): Linear(in_features=512, out_features=1024, bias=True)
          (fc2): Linear(in_features=1024, out_features=512, bias=True)
        )
      )
      (4): MegaDecoderLayer(
        (mega_layer): MovingAverageGatedAttention(
          edim=512, zdim=128, hdim=1024, ndim=16, chunk=-1, attn_act=softmax, prenorm=False
          (dropout): FairseqDropout(p=0.2)
          (hidden_dropout): FairseqDropout(p=0.0)
          (attention_dropout): FairseqDropout(p=0.0)
          (norm): SequenceNorm(
            (norm): LayerNorm((512,), eps=1e-05, elementwise_affine=True)
          )
          (move): MultiHeadEMA(edim=512, ndim=16, bidirectional=False, trunction=1024)
          (v_proj): Linear(in_features=512, out_features=1024, bias=True)
          (mx_proj): Linear(in_features=512, out_features=2176, bias=True)
          (h_proj): Linear(in_features=1024, out_features=512, bias=True)
          (rel_pos_bias): SimpleRelativePositionalBias(max positions=1024)
        )
        (cross_attn): GatedCrossAttention(
          edim=512, zdim=128, ndim=16, attn_act=softmax, prenorm=False
          (dropout): FairseqDropout(p=0.2)
          (hidden_dropout): FairseqDropout(p=0.0)
          (attention_dropout): FairseqDropout(p=0.0)
          (norm): SequenceNorm(
            (norm): LayerNorm((512,), eps=1e-05, elementwise_affine=True)
          )
          (k_proj): Linear(in_features=512, out_features=128, bias=True)
          (v_proj): Linear(in_features=512, out_features=512, bias=True)
          (q_proj): Linear(in_features=512, out_features=1152, bias=True)
          (h_proj): Linear(in_features=512, out_features=512, bias=True)
          (rel_pos_bias): SimpleRelativePositionalBias(max positions=1024)
        )
        (nffn): NormalizedFeedForwardNetwork(
          edim=512, hdim=1024, act=silu, prenorm=False
          (dropout): FairseqDropout(p=0.2)
          (hidden_dropout): FairseqDropout(p=0.0)
          (norm): SequenceNorm(
            (norm): LayerNorm((512,), eps=1e-05, elementwise_affine=True)
          )
          (fc1): Linear(in_features=512, out_features=1024, bias=True)
          (fc2): Linear(in_features=1024, out_features=512, bias=True)
        )
      )
      (5): MegaDecoderLayer(
        (mega_layer): MovingAverageGatedAttention(
          edim=512, zdim=128, hdim=1024, ndim=16, chunk=-1, attn_act=softmax, prenorm=False
          (dropout): FairseqDropout(p=0.2)
          (hidden_dropout): FairseqDropout(p=0.0)
          (attention_dropout): FairseqDropout(p=0.0)
          (norm): SequenceNorm(
            (norm): LayerNorm((512,), eps=1e-05, elementwise_affine=True)
          )
          (move): MultiHeadEMA(edim=512, ndim=16, bidirectional=False, trunction=1024)
          (v_proj): Linear(in_features=512, out_features=1024, bias=True)
          (mx_proj): Linear(in_features=512, out_features=2176, bias=True)
          (h_proj): Linear(in_features=1024, out_features=512, bias=True)
          (rel_pos_bias): SimpleRelativePositionalBias(max positions=1024)
        )
        (cross_attn): GatedCrossAttention(
          edim=512, zdim=128, ndim=16, attn_act=softmax, prenorm=False
          (dropout): FairseqDropout(p=0.2)
          (hidden_dropout): FairseqDropout(p=0.0)
          (attention_dropout): FairseqDropout(p=0.0)
          (norm): SequenceNorm(
            (norm): LayerNorm((512,), eps=1e-05, elementwise_affine=True)
          )
          (k_proj): Linear(in_features=512, out_features=128, bias=True)
          (v_proj): Linear(in_features=512, out_features=512, bias=True)
          (q_proj): Linear(in_features=512, out_features=1152, bias=True)
          (h_proj): Linear(in_features=512, out_features=512, bias=True)
          (rel_pos_bias): SimpleRelativePositionalBias(max positions=1024)
        )
        (nffn): NormalizedFeedForwardNetwork(
          edim=512, hdim=1024, act=silu, prenorm=False
          (dropout): FairseqDropout(p=0.2)
          (hidden_dropout): FairseqDropout(p=0.0)
          (norm): SequenceNorm(
            (norm): LayerNorm((512,), eps=1e-05, elementwise_affine=True)
          )
          (fc1): Linear(in_features=512, out_features=1024, bias=True)
          (fc2): Linear(in_features=1024, out_features=512, bias=True)
        )
      )
    )
    (output_projection): Linear(in_features=512, out_features=34088, bias=False)
  )
)
2023-05-26 04:33:44 | INFO | fairseq_cli.train | task: document_translation (ConcatTranslationTask)
2023-05-26 04:33:44 | INFO | fairseq_cli.train | model: contextual_mega (ContextualMegaModel)
2023-05-26 04:33:44 | INFO | fairseq_cli.train | criterion: label_smoothed_cross_entropy (LabelSmoothedCrossEntropyCriterion)
2023-05-26 04:33:44 | INFO | fairseq_cli.train | num. model params: 82641902 (num. trained: 82641902)
…
